quick_baseline_test/baseline_model.pth (torch, 277103 bytes, 7 tensors)

conv1.weight f4 [16, 1, 5]
0	0xbed61573	-0.4181324
1	0xbebfc606	-0.37455767
2	0x3eb9f147	0.36316893
3	0xbe1689a9	-0.1470095
4	0xbd92eed6	-0.071744606
5	0xbe07822d	-0.13233252
6	0x3e967a94	0.29390395
7	0xbefb8412	-0.491242
8	0x3d083503	0.03325368
9	0xbd9ab65c	-0.075543135
10	0x3d8d99d6	0.069141075
11	0x3ed26493	0.41092357
12	0x3edfc0ad	0.43701687
13	0x3ea1c46a	0.31595165
14	0x3cf5be1e	0.029997882
15	0x3e46b12c	0.19403523
16	0xbd19dd97	-0.03756484
17	0xbd4b9f97	-0.049712744
18	0xbeaf845d	-0.34280673
19	0xbe5964d4	-0.21229869
20	0xbe90a49a	-0.2825058
21	0xbe98b6f4	-0.29827082
22	0xbefb3221	-0.49061683
23	0xbe1b345c	-0.15156692
24	0xbeeceaef	-0.4627299
25	0xbea84421	-0.32864478
26	0x3dca6700	0.09882927
27	0x3ef055ed	0.46940556
28	0x3ef40a76	0.4766423
29	0x3dae8c8b	0.085229
30	0xbe999402	-0.29995733
31	0x3ebbcf2c	0.36681497
32	0x3ee0c163	0.43897542
33	0xbdfdb29a	-0.12387581
34	0x3da75750	0.081709504
35	0xbe8b8ed8	-0.2725742
36	0x3eaeec30	0.34164572
37	0x3ef3e8e0	0.47638607
38	0xbe188728	-0.14895308
39	0x3ccf2bb5	0.025289396
40	0xbdd2cd0b	-0.10293015
41	0xbe5c77fb	-0.21530144
42	0x3dc194e5	0.094522275
43	0xbe9bd727	-0.30437586
44	0x3e24254e	0.16029856
45	0x3edad926	0.42743796
46	0x3ed2e5b7	0.41190884
47	0xbe9b5570	-0.3033862
48	0xbdf82e17	-0.12118166
49	0x3e1a6c20	0.15080309
50	0x3eb35714	0.35027373
51	0x3eb49a8a	0.35274154
52	0xbe66f00d	-0.2255251
53	0x3e9a358d	0.3011898
54	0xbcfd008b	-0.030884048
55	0xbeea8153	-0.45801792
56	0xbe4734ea	-0.19453779
57	0xbef631af	-0.4808478
58	0xbed3f4fc	-0.41397846
59	0xbe7ce31a	-0.24696007
60	0x3ecce286	0.40016574
61	0x3ee58535	0.4482819
62	0x3e7e85bd	0.24855705
63	0xbe6c9eb5	-0.23107417
64	0x3de0cb38	0.10976261
65	0xbe9ba340	-0.30397987
66	0xbd938b74	-0.07204333
67	0xbb90f35b	-0.0044235415
68	0xbe950fd3	-0.29113635
69	0x3e66a903	0.2252541
70	0x3e5387b6	0.20657238
71	0xbec8ea7f	-0.39241406
72	0x3ea32830	0.31866598
73	0x3dbc8f3a	0.09207006
74	0x3d5a3e30	0.053281963
75	0xbedf134c	-0.4356941
76	0xbeed129b	-0.46303257
77	0xbedca303	-0.43093118
78	0x3ea849e0	0.32868862
79	0xbe00f0ae	-0.12591812

conv1.bias f4 [16]
0	0x3eb8dece	0.36107486
1	0xbe41f641	-0.18941595
2	0xbe1036f5	-0.14083464
3	0x3ea93f20	0.33055973
4	0xbe9076e1	-0.28215697
5	0x3e1dbcad	0.15404005
6	0x3e7d2a1b	0.24723093
7	0xbead94f9	-0.3390272
8	0x3ee3d906	0.44501513
9	0xbe92724f	-0.28602836
10	0xbe05aa55	-0.13053258
11	0x3d7121e5	0.058870215
12	0xbe1a5432	-0.1507118
13	0xbe6a9ca1	-0.22911312
14	0x3cc68744	0.024234422
15	0x3e836a58	0.2566707

conv2.weight f4 [32, 16, 5]
0	0xbc871f61	-0.016494455
1	0xbcf2cc05	-0.0296383
2	0x3d85fe44	0.06542638
3	0x39e91a44	0.00044460793
4	0x3d67e72b	0.056616943
5	0xbd3c9354	-0.04603894
6	0xbdf1002e	-0.117676124
7	0xbe355029	-0.1770636
8	0xbd746721	-0.059668664
9	0x3d23deae	0.040007286
10	0xbd82eb13	-0.06392493
11	0x3d9360cc	0.07196197
12	0x3e13c216	0.14429507
13	0x3d6b69eb	0.057474058
14	0x3d8eb3f8	0.0696792
15	0xbd441c30	-0.047878444
16	0xbd9327d1	-0.07185329
17	0x3b897387	0.00419468
18	0x3d6a417b	0.057191353
19	0xbd35b7af	-0.044364627
20	0x3dd40125	0.10351781
21	0xbd385dc8	-0.04501131
22	0xbd0d72e8	-0.03453341
23	0xbcfdde54	-0.030989803
24	0xbd53ea34	-0.051737025
25	0xbd181b02	-0.03713513
26	0x3e240ba5	0.16020067
27	0x3ddd7a26	0.108143136
28	0x3cf7e88f	0.03026226
29	0xbd959455	-0.07303683
30	0xbd207b6d	-0.039180208
31	0x3e059f67	0.13049088
32	0x3cd4d7c1	0.025981786
33	0x3c53d286	0.012928611
34	0x3d77d7f9	0.060508702
35	0x3cd938e7	0.026516391
36	0x3dc51993	0.096240185
37	0x3c22c538	0.009934716
38	0x3e36ce05	0.17852028
39	0xbe33f6d2	-0.17574623
40	0x3dfcb142	0.12338497
41	0xbdd537a3	-0.104110025
42	0xbe18eafd	-0.14933391
43	0xbe071aba	-0.13193789
44	0x3c8ce92c	0.017201029
45	0x3d7a82c5	0.061159868
46	0xbde78b76	-0.11305897
47	0xbd5a3eb8	-0.05328247
48	0xbd35730a	-0.044299163
49	0x3e344af9	0.17606725
50	0xbdf08149	-0.11743409
51	0xbda69980	-0.081347466
52	0xbd1d4966	-0.038400076
53	0x3d12e9b7	0.03586742
54	0x3deffb59	0.11717863
55	0x3daac85a	0.08338995
56	0x3ccab3b5	0.024743894
57	0xbdf5b709	-0.11997802
58	0x3d8777ca	0.06614645
59	0x3d9f6c7d	0.07784364
60	0x3d97ac94	0.074059635
61	0xbd881446	-0.06644492
62	0xbd32ecd3	-0.043682884
63	0x3d636069	0.055511866
64	0x3d856180	0.06512737
65	0x3e050dc1	0.12993528
66	0xbd88dbe2	-0.06682564
67	0xbce75688	-0.028239504
68	0xbdb067c0	-0.08613539
69	0xbcb03d5b	-0.021513632
70	0x3c85e2f0	0.016343564
71	0x3d5093ab	0.050922077
72	0xbb3ebcfa	-0.0029104338
73	0x3e01b408	0.12666333
74	0x3c861de8	0.016371682
75	0x3df1dceb	0.11809715
76	0x3cad76c4	0.021174796
77	0xba248d28	-0.00062771374
78	0xbdef2c20	-0.11678338
79	0xbc972065	-0.018448064
80	0xbcd0e19e	-0.025498208
81	0xbd1289e8	-0.03577605
82	0x3cb3ca7a	0.021947134
83	0x3d0b5f18	0.034026235
84	0xbdb7c4e4	-0.08973101
85	0x3e04d805	0.1297303
86	0xbd39a810	-0.045326293
87	0x3d90ffae	0.07080017
88	0xbdeb482b	-0.11488374
89	0xbd13ec7c	-0.0361142
90	0xbdbef4ab	-0.093240105
91	0xbd8902eb	-0.0669001
92	0xbe07994b	-0.1324207
93	0x3dad73d5	0.08469359
94	0xbb871c23	-0.004123227
95	0x3e1dba7b	0.15403168
96	0x3e211be1	0.15733291
97	0xbd610202	-0.054933555
98	0xbe219667	-0.1578003
99	0xbc1930bf	-0.009350001
100	0x3ccdd907	0.0251279
101	0x3e0369b4	0.12833291
102	0xbd9b97e7	-0.075973324
103	0x3beb3b35	0.007178689
104	0xbdedc0f0	-0.116090655
105	0xbdad2bcc	-0.08455619
106	0x3bac692a	0.00526156
107	0xbba4dda8	-0.0050313063
108	0x3e663843	0.224824
109	0x3e67acc7	0.22624503
110	0xbe14a7a6	-0.14517078
111	0xbb9fa03a	-0.0048713954
112	0xbce78dcf	-0.028265862
113	0x3dc63526	0.09678106
114	0x3e1c7df7	0.15282427
115	0xbe2ea9b3	-0.17056923
116	0xbd479db5	-0.048734386
117	0xbd26a267	-0.040682223
118	0x3d7d8562	0.061894782
119	0x3e132cde	0.14372584
120	0x3db4e5ab	0.08832868
121	0xbcf7c002	-0.030242924
122	0x3d8f292f	0.06990277
123	0x3cf7ebf1	0.030263873
124	0xbe078e33	-0.13237838
125	0x3cb02f53	0.021506941
126	0xbd904945	-0.07045225
127	0xbde3a58d	-0.11115561
128	0xbce6c27f	-0.028168915
129	0x3da67e28	0.08129531
130	0x3b807846	0.0039205877
131	0xbd7130e3	-0.058884513
132	0xbe09d533	-0.13460235
133	0xbd3b8350	-0.045779526
134	0xbc7ef8f6	-0.015562287
135	0x3ca5d227	0.02024181
136	0xbcda333f	-0.026635764
137	0x3d39e3ee	0.045383386
138	0xbd685560	-0.056722045
139	0xbdf60ee1	-0.12014557
140	0xbdc22d82	-0.09481336
141	0xbdc0d57e	-0.094157204
142	0xbe3d8555	-0.18507893
143	0x3c8582ad	0.016297663
144	0x3e3bb6fc	0.18331522
145	0x3d99cd46	0.07509856
146	0x3d98f839	0.0746922
147	0xbcfe6f49	-0.031058924
148	0x3d8345da	0.064098075
149	0x3d0520b2	0.032501884
150	0xbb553ff6	-0.0032539344
151	0x3aee8771	0.0018198324
152	0x3dd3955a	0.10331221
153	0x3ccba4c3	0.024858838
154	0x3e3704de	0.1787295
155	0xbdc4fdbc	-0.096187085
156	0x3db83df0	0.08996189
157	0x3db360f0	0.08758724
158	0x3c4ba8e4	0.012430403
159	0x3d30e9ea	0.043191828
160	0x3a22647f	0.00061947847
161	0xbd93b26f	-0.07211768
162	0x3d2f7107	0.0428324
163	0xbc1fb33a	-0.009747321
164	0xbd3a5f8c	-0.045501277
165	0xbc525498	-0.0128375515
166	0x3c089d4d	0.008338285
167	0xbd97f13c	-0.07419059
168	0x3e01302e	0.12616035
169	0x3d3baedd	0.04582106
170	0xbd36ced2	-0.044630833
171	0xbdd35aee	-0.10320078
172	0xbcf31e36	-0.029677492
173	0x3dad3732	0.08457793
174	0xbe35a223	-0.17737631
175	0xbda36efa	-0.079801515
176	0xbcc21f08	-0.023696437
177	0x3da4fc99	0.08055992
178	0x3d191aa8	0.037378937
179	0x3cabbf31	0.02096519
180	0x3ba1efb6	0.004941906
181	0x3d0503da	0.032474376
182	0x3e07f450	0.13276792
183	0x3e11371c	0.14181179
184	0x3e0d8432	0.1381996
185	0xbe143d3f	-0.14476489
186	0x3b3aef74	0.0028524073
187	0xbd9cf455	-0.0766379
188	0xbd351877	-0.044212785
189	0xbd438751	-0.04773647
190	0xbc73d19e	-0.01488152
191	0xbe002fa0	-0.12518167
192	0xbdc9eb42	-0.09859325
193	0xbcd7e0d5	-0.026352325
194	0xbdf7da53	-0.12102189
195	0xbe68e1cc	-0.22742385
196	0x3d51fee9	0.051268492
197	0xbdc1d30e	-0.094640836
198	0xbcfd1a52	-0.03089634
199	0xbd9ee888	-0.077591956
200	0xbd94ffac	-0.07275328
201	0x3de9f3f1	0.11423481
202	0x3db4e0e4	0.08831957
203	0xbd3a4b01	-0.045481686
204	0x3df1c1f8	0.11804575
205	0x3d235d82	0.039884098
206	0xbd8369cd	-0.06416664
207	0xbdb96e95	-0.09054295
208	0x3c7365b1	0.014855788
209	0x3c3781cd	0.0112003805
210	0xbd85894c	-0.06520328
211	0xbdc52462	-0.0962608
212	0xbdb67024	-0.08908108
213	0xbdecc0c4	-0.115602046
214	0xbdfbf95a	-0.123034194
215	0x3c932f23	0.017966812
216	0xbd359d4e	-0.04433947
217	0xbd8038a1	-0.06260801
218	0x3d9ffab1	0.078114875
219	0x3d8d71d4	0.069064766
220	0x3df011cb	0.11722144
221	0xbddc5b5e	-0.107596144
222	0xbe13a673	-0.14418964
223	0xbd0b77f3	-0.03404994
224	0xbd2c2063	-0.042023074
225	0xbda56c3a	-0.08077283
226	0x3dc7133f	0.09720468
227	0x3dcb06f9	0.09913439
228	0x3aa7ad4d	0.0012792737
229	0x3e06b122	0.13153508
230	0x3c368662	0.011140438
231	0xbe05fa29	-0.1308371
232	0xbd504b3f	-0.05085301
233	0xbd8d659b	-0.06904145
234	0xbe241788	-0.16024601
235	0xbceb3271	-0.028710576
236	0xbd2dad1c	-0.042401418
237	0xbcb81210	-0.02246955
238	0x3d98f9de	0.074695334
239	0x3de085a2	0.109629884
240	0x3e2b048a	0.1670095
241	0x3e166b02	0.14689258
242	0xbc7a6a6f	-0.015284165
243	0xbd9f06fe	-0.077650055
244	0xbd5bb5ab	-0.05364005
245	0x3d2a56f2	0.041586824
246	0xbdc4ccd9	-0.09609384
247	0xbd96c948	-0.0736261
248	0xbe26a005	-0.1627198
249	0xbddba0de	-0.10724042
250	0xbe086509	-0.13319792
251	0x3d3a9cb2	0.045559593
252	0x3de3874f	0.111097924
253	0xbdcdcdd6	-0.10049026
254	0xbca4b050	-0.020103604
255	0xbd3025a2	-0.04300464

conv2.bias f4 [32]
0	0x3bd57e0d	0.0065152706
1	0xbd373e4d	-0.04473715
2	0x3e00c1c3	0.12573914
3	0x3de53e79	0.11193556
4	0x3c22a7c9	0.009927698
5	0xbdcee877	-0.10102933
6	0x3cb6cd71	0.022314759
7	0x3cee1d04	0.02906657
8	0x3b901a42	0.0043976614
9	0x3dc80386	0.09766297
10	0xbc5fbdc3	-0.013656083
11	0xbccb511c	-0.02481895
12	0x3d7c340b	0.06157307
13	0xbd2f493e	-0.04279446
14	0x3d3c361e	0.045950048
15	0x3d8c9813	0.06864943
16	0xbd1c627b	-0.038179856
17	0x3d0c0f4f	0.034194287
18	0xbd8c2e43	-0.06844761
19	0xbdd5cc6f	-0.10439383
20	0x3c0ed580	0.008717895
21	0xbd883338	-0.06650394
22	0x3cb9723e	0.022637483
23	0xbd8095a7	-0.06278544
24	0x38420bd1	4.626421e-05
25	0xbc661d4d	-0.014045072
26	0x3c538c31	0.012911842
27	0xbbe3b533	-0.006949091
28	0x3d0ba6d5	0.03409465
29	0x3de83389	0.113379546
30	0xbd901123	-0.070345186
31	0xbd08741e	-0.033313863

fc1.weight f4 [64, 1024]
0	0x3c3ee62d	0.011651558
1	0xbc623b65	-0.013808106
2	0xbcd67080	-0.026176691
3	0xbd00067c	-0.031256184
4	0xbcd6b3b6	-0.02620874
5	0x3c23c592	0.009995835
6	0xbcb3eeb8	-0.021964416
7	0x3c6465b6	0.013940265
8	0xbd0d5495	-0.03450449
9	0xbb237500	-0.0024941564
10	0x3c854086	0.016266119
11	0x3c2aa282	0.010414721
12	0xbd0664ef	-0.0328111
13	0x3c9bcfd6	0.019020002
14	0xbbaff787	-0.0053700837
15	0x3cc8935b	0.024484327
16	0x3c3d2b11	0.011545912
17	0x3c2bc49d	0.010483888
18	0xbbd3bb3f	-0.0064615305
19	0xbcca11ca	-0.024666686
20	0x3c8eae1a	0.017417002
21	0xbc6ef3c8	-0.014584489
22	0xbcac9d8d	-0.02107122
23	0x3bcd5082	0.006265701
24	0xbc9705fb	-0.018435469
25	0xbcda440b	-0.026643774
26	0x3ccec919	0.025242375
27	0xbc900ae0	-0.01758331
28	0xbd0e5d0f	-0.034756716
29	0xbd01608f	-0.031586226
30	0xbc8e3775	-0.017360428
31	0xbc97a141	-0.018509509
32	0xbcbf633c	-0.023362748
33	0x3b6c4100	0.0036049485
34	0x3cc0b946	0.023525845
35	0xbc853232	-0.016259287
36	0xbbd34338	-0.006447222
37	0xbcae7ea8	-0.021300629
38	0x3c8fe272	0.017564032
39	0x3b9cec28	0.004788894
40	0xbc724608	-0.014787205
41	0x3ce94392	0.028474603
42	0xbc8c4f06	-0.017127525
43	0xbb0662c0	-0.0020505637
44	0xbcad7896	-0.021175664
45	0xbc700ff4	-0.014652241
46	0x3cce69d8	0.025196955
47	0x3aaa11a0	0.0012975223
48	0x3c0881e4	0.00833175
49	0xba2ac2c0	-0.00065140054
50	0xbb2259c0	-0.0024772733
51	0xbcbf8266	-0.023377609
52	0x3c966382	0.018357996
53	0x3bfcf870	0.0077200457
54	0x3ce6c68e	0.02817085
55	0x3c1f3b88	0.009718783
56	0x3ca96686	0.02067877
57	0xbb6b2ba0	-0.0035884157
58	0x3c87354a	0.016504902
59	0xbcd2781e	-0.025692042
60	0xbcb29a42	-0.021802071
61	0x3ce43f70	0.02786228
62	0xbc909b52	-0.017652187
63	0xbd015fd9	-0.031585548
64	0xbc9538ec	-0.018215619
65	0x3c604e70	0.013690576
66	0xba494e80	-0.0007679239
67	0x3bdc8824	0.0067300964
68	0x3c2b89b0	0.010469839
69	0x3c97aa03	0.018513685
70	0x3c609569	0.013707497
71	0x3bb99c33	0.0056643724
72	0xbd0bf21b	-0.034166437
73	0xbc2e0354	-0.010620911
74	0x3cab9e5a	0.020949531
75	0x3ae64780	0.0017568916
76	0x3c767480	0.015042424
77	0xbcbb985c	-0.022899799
78	0xbc1ccd28	-0.009570397
79	0x3c9b7cba	0.018980373
80	0xbb388010	-0.0028152503
81	0x3cbbe5d4	0.022936739
82	0xbcb0eeaa	-0.021598179
83	0x3cfd9bf2	0.03095815
84	0xb9f23300	-0.00046195835
85	0xbcd9fefc	-0.026610844
86	0x3cce9058	0.025215313
87	0xbca16ad0	-0.019704252
88	0x3a6d9a80	0.0009063855
89	0xbc7d3f2c	-0.015456956
90	0xbc2d1770	-0.01056467
91	0x3c54239c	0.012947943
92	0xbce8e3de	-0.028428968
93	0x3cedc6e6	0.029025506
94	0x3c521ac0	0.0128237605
95	0xbc3e5ea8	-0.0116192475
96	0xbcae3d93	-0.021269595
97	0xbbd8b0d0	-0.0066128746
98	0xbc9b22be	-0.018937465
99	0xbcc48333	-0.023988342
100	0xbaa11612	-0.0012289903
101	0xbcf04679	-0.029330479
102	0xbca619d9	-0.020275997
103	0xbd123ab7	-0.035700526
104	0x3cb5274d	0.022113467
105	0x3c1cc076	0.009567371
106	0xbc2538f1	-0.010084377
107	0x3bab89b8	0.005234923
108	0xbcb0995c	-0.021557502
109	0x3b26ba31	0.0025440569
110	0x3c25acc1	0.0101119885
111	0x3c7b5b3c	0.015341576
112	0x3c5e2561	0.0135587165
113	0x3c3c0c53	0.011477548
114	0x3bd1cc06	0.0064024953
115	0x3bc5da1c	0.0060379636
116	0x3b7744e9	0.0037730283
117	0xbbc0fdba	-0.0058896216
118	0xbc82ce45	-0.015967498
119	0xbc267ea1	-0.010162027
120	0xbcb874b8	-0.022516593
121	0xbb949c55	-0.004535238
122	0x3c5fbc55	0.013655742
123	0xbbb2f7d9	-0.0054616746
124	0xbbdf02d2	-0.006805756
125	0x3bcd0850	0.0062570944
126	0xbbf654bf	-0.0075174267
127	0x3a0b3ef3	0.00053118094
128	0x3cf76614	0.030200042
129	0x3c6d5134	0.014484692
130	0x3c678a14	0.0141320415
131	0xbbe62168	-0.0070230253
132	0x3ca07a4c	0.019589566
133	0x3ba0e538	0.0049101375
134	0x3c8f00f4	0.01745651
135	0x3c7b502c	0.015338939
136	0x3c0a7744	0.008451287
137	0xbcb27d1e	-0.021788176
138	0xbcd2ef0a	-0.025748748
139	0x3cc8b95e	0.024502452
140	0xbb471ae0	-0.003038101
141	0xbcb13ad0	-0.02163449
142	0xbce7f036	-0.028312784
143	0x3c4f2028	0.012641944
144	0xbca00208	-0.019532219
145	0xbbac7618	-0.0052631013
146	0xbcec8a26	-0.028874468
147	0x3cece728	0.028918818
148	0xbcdaaa14	-0.026692428
149	0xbbd311a0	-0.00644131
150	0xbb452110	-0.0030079521
151	0xbcdfeb0c	-0.027333759
152	0xbc4c5144	-0.012470547
153	0xb9f9d63a	-0.00047652592
154	0xbc38e955	-0.011286099
155	0x3c9f6ddb	0.019461563
156	0x3c26bbc0	0.010176599
157	0x3c9867b2	0.018604133
158	0xbca20de6	-0.019782018
159	0x3ce9a7aa	0.028522331
160	0x3a1b4100	0.00059224665
161	0xbc1d6d39	-0.00960856
162	0xba48e9c8	-0.00076642307
163	0x3c878541	0.016543033
164	0xbb158daa	-0.0022820034
165	0xbc0b522b	-0.008503477
166	0x3cc97cc0	0.024595618
167	0xbc236c63	-0.009974572
168	0x3cba7f05	0.022765646
169	0x3ca44f5b	0.02005737
170	0xbcfb29b7	-0.03065954
171	0xbb819b75	-0.0039552995
172	0xbc8029a4	-0.015644856
173	0x3c1f5c84	0.009726647
174	0xbcacb276	-0.02108119
175	0xbcf26088	-0.029587045
176	0xbcb66c24	-0.022268362
177	0x3957cc00	0.00020579994
178	0xbcc3031a	-0.02380519
179	0x3c2db290	0.010601655
180	0xbcd491ea	-0.025948483
181	0x3bfd2e58	0.007726472
182	0xbcff586e	-0.031170096
183	0xbb4393d0	-0.0029842742
184	0x3c6d5678	0.014485948
185	0x3cf71fb6	0.030166488
186	0xbc692ccc	-0.014231872
187	0x3c9d37e2	0.019191686
188	0x3bc54126	0.006019729
189	0xbc852afd	-0.01625585
190	0x3cb84c56	0.022497337
191	0x3c9a61b4	0.018845417
192	0xbca65ad4	-0.020306982
193	0x3c8e51a4	0.017372914
194	0x3c94e9a8	0.018177822
195	0xbc3fdb88	-0.011710055
196	0xbc9ed598	-0.019388959
197	0x3ce445ee	0.027865376
198	0xbc260e08	-0.010135181
199	0x3b9f8fe8	0.00486945
200	0xbbed0e98	-0.0072344057
201	0xbcc2dfd8	-0.023788378
202	0xbba53f10	-0.005042918
203	0x3c08bcd0	0.008345798
204	0x3c606c28	0.013697661
205	0x3c91bd94	0.017790593
206	0xbcfce900	-0.030872822
207	0xbc346a08	-0.011011608
208	0xbaaf51fa	-0.0013375871
209	0xbd0d9cca	-0.034573354
210	0xbb3415cd	-0.0027478815
211	0xbc1b057f	-0.00946176
212	0xbbd82d6b	-0.006597211
213	0x3ccf7ab4	0.025327064
214	0xbd0e0edf	-0.03468215
215	0xba17a8b9	-0.00057853345
216	0x3cccd0f9	0.02500199
217	0xbcc0601a	-0.023483325
218	0xbd02d31b	-0.031939607
219	0xbcbea6cc	-0.023272894
220	0x3bfd7570	0.007734947
221	0xbba3cf70	-0.0049990937
222	0x3c2f1370	0.010685787
223	0xbd167ea0	-0.036741853
224	0x3c85feb4	0.016356803
225	0xbc479647	-0.012181825
226	0x3c3dace0	0.011576861
227	0xbcd91dc3	-0.02650345
228	0xbb6dbaa8	-0.0036274586
229	0x3c9321c9	0.017960446
230	0x3c82a99c	0.015950017
231	0x3b64a0b7	0.0034885833
232	0x3cae646f	0.021288125
233	0xbcda8a52	-0.026677284
234	0x3ba5774e	0.0050496226
235	0xbcff12cd	-0.031136895
236	0xbccc4d10	-0.02493909
237	0x3ccc94f1	0.024973365
238	0x3c0b8c28	0.008517303
239	0xbb7614c0	-0.003754899
240	0x3bb10618	0.0054023378
241	0xbcdd565a	-0.027018715
242	0xb8d14c00	-9.980053e-05
243	0xbcb96eb0	-0.022635788
244	0x3b3e7200	0.0029059649
245	0xbcb687aa	-0.022281487
246	0x3cc6fe4e	0.024291184
247	0xbc453f58	-0.012039028
248	0xba88ea60	-0.0010445826
249	0xbbf19360	-0.007372305
250	0xbc1eb81a	-0.009687448
251	0xbceaa18c	-0.028641485
252	0xbcf22e41	-0.029563071
253	0xbba2ddcb	-0.0049702874
254	0xbccf818a	-0.025330324
255	0x3c356864	0.011072252

fc1.bias f4 [64]
0	0x3c7c1759	0.015386426
1	0xbcc27eb7	-0.023742063
2	0xbcca17d8	-0.024669573
3	0xbd17b4ec	-0.037037775
4	0x3cd5000b	0.026000997
5	0x3ca2c070	0.019867152
6	0x3cae8840	0.021305203
7	0x3d6913e9	0.056903753
8	0xbcf95667	-0.030436708
9	0x3b5df6a2	0.0033868928
10	0x3d19fbfb	0.037593823
11	0x3be5c96c	0.0070125367
12	0x3c231921	0.009954722
13	0x3c95e57f	0.018297909
14	0x3bf130f1	0.0073605706
15	0x3bb5d85f	0.005549475
16	0xbc1a6b35	-0.009424974
17	0x3b37fed7	0.002807548
18	0x3d1c4ee5	0.038161177
19	0x3cb12519	0.021624135
20	0x3aa9eee7	0.0012964875
21	0xbcb342f0	-0.021882504
22	0x3c7eda83	0.015555027
23	0xbcc0d3f4	-0.023538567
24	0xbc285c91	-0.010275976
25	0x3ce6e6f9	0.028186308
26	0x3cdc7a0b	0.026913663
27	0x3bbcee4d	0.0057657124
28	0x3ce28a4d	0.027653838
29	0x3c96c985	0.018406639
30	0x3ca08de7	0.019598914
31	0x3c834cf1	0.0160279
32	0xbd01b0fb	-0.031662922
33	0xbcd1228e	-0.025529172
34	0x3a51e031	0.00080061244
35	0x3c13febd	0.009032902
36	0x3cbaef4b	0.022819182
37	0xbc650348	-0.013977833
38	0x3bf9911a	0.0076161744
39	0x399bb45d	0.00029698285
40	0xbcc9fa85	-0.02465559
41	0x3beca098	0.0072212927
42	0xbcbf3a2e	-0.023343172
43	0xbd0a3c30	-0.033748806
44	0x3c8bf400	0.017084122
45	0xbc499238	-0.012302928
46	0x3c478341	0.012177289
47	0xbcb785d1	-0.022402676
48	0x3cb7d0cc	0.02243843
49	0xbcc23a31	-0.023709388
50	0x3ba73308	0.005102519
51	0x3be087a7	0.0068521085
52	0xbcf55dbe	-0.029951926
53	0x3cfc659b	0.030810168
54	0x3c3a0512	0.011353748
55	0x3d210045	0.039306898
56	0x3c92d559	0.017923998
57	0x3cfe2845	0.031025061
58	0x3cac2afe	0.021016594
59	0x3c72eebe	0.014827428
60	0x3ca0be44	0.019621976
61	0xbcf73c22	-0.03018004
62	0x3c33dd8c	0.010978114
63	0xbcd419ee	-0.02589127

fc2.weight f4 [1, 64]
0	0x3d0030c9	0.031296525
1	0xbd46fa08	-0.048578292
2	0x3ca7de2c	0.020491682
3	0xbb56c1e2	-0.0032769372
4	0x3db95a85	0.09050468
5	0x3ddbe16e	0.10736357
6	0x3d8d8ade	0.069112524
7	0x3dc0ea5e	0.09419702
8	0xbcf78a95	-0.030217448
9	0x3de723ec	0.112861484
10	0x3e202d0a	0.15642181
11	0x3e21e578	0.15810192
12	0xbde93f40	-0.11389017
13	0x3da945e4	0.08265284
14	0x3da8b35d	0.08237336
15	0x3d43c2ce	0.047793202
16	0xbd886624	-0.06660107
17	0xbce4a426	-0.027910303
18	0x3d2fad5f	0.04288995
19	0x3dbad2e9	0.09122259
20	0xbcf26226	-0.029587816
21	0xbd29ce25	-0.04145636
22	0xbca2a8c6	-0.019855868
23	0x3b248f29	0.0025109744
24	0x3dfd8829	0.12379486
25	0x3e036860	0.12832785
26	0x3e25344b	0.1613323
27	0x3a65b2af	0.00087622827
28	0xbe0f9f37	-0.1402558
29	0xbd4ee761	-0.05051363
30	0xbddad77f	-0.10685634
31	0xbce44a9c	-0.027867608
32	0x3837b543	4.3799413e-05
33	0xbdc199a7	-0.09453135
34	0x3e35f2c5	0.1776839
35	0x3ddc8c5f	0.10768961
36	0x3dd5a648	0.10432106
37	0x3d64f2d6	0.05589565
38	0xbde4f4c4	-0.11179498
39	0xbdd5c3bc	-0.10437724
40	0x3db40b2b	0.087911926
41	0xbe0f4b45	-0.13993557
42	0xbd9fb6e6	-0.07798557
43	0xbd87f4a6	-0.0663846
44	0x3d8eac30	0.06966436
45	0x3d909528	0.07059699
46	0x3c7f5ea4	0.015586529
47	0xbcdc6a6f	-0.02690622
48	0x3d06371f	0.03276741
49	0xbc10f6c0	-0.008847892
50	0xbdadb8e2	-0.08482529
51	0xbd84bdb2	-0.06481494
52	0xbda47773	-0.08030596
53	0x3e3cd395	0.18440087
54	0xbe040128	-0.12891066
55	0x3e28f0bc	0.16498083
56	0x3b0be3d0	0.0021345504
57	0x3db76219	0.089542575
58	0xbdf49657	-0.119427375
59	0x3d96d461	0.07364727
60	0x3d911bb5	0.07085363
61	0xbd314c7c	-0.04328583
62	0xbdb181a7	-0.08667307
63	0xbdec998a	-0.11552723
